MCU/clustering.onnx (onnx, 83849 bytes, 5 tensors)

StatefulPartitionedCall/model/dense_2/MatMul/ReadVariableOp:0 f4 [8, 4]
00000000: a08b b63d 5242 ea3e c279 86be d064 b03d
00000010: 4191 093f 5c9a 37be ba9b 16bf 5e13 f23e
00000020: cc35 bbbe 58d3 943d 5467 7c3e ca65 843e
00000030: 78a0 203e 044c 283e e366 1dbf cf42 0b3f
00000040: fb52 053f 04f4 023e 4096 43bc 5067 783e
00000050: 904c 2ebd 00a9 8bbd d095 2fbe b348 2d3f
00000060: 205b e63d 8c88 923e 9896 f33d 7470 8fbe
00000070: ee6f d63e aa06 c3be 5ed8 71be 0021 72bc
0.0891335 0.45753723 -0.2626477 0.086129785 0.53737265 -0.17929977 -0.5883137 0.472804
-0.3656448 0.07266873 0.24648792 0.2585891 0.15686214 0.16435248 -0.6148512 0.54398817
0.52079743 0.12788397 -0.011937678 0.2425816 -0.042553484 -0.068193436 -0.17146993 0.67689055
0.112478495 0.28619802 0.11893958 -0.28015482 0.4188227 -0.38091022 -0.23617694 -0.014778376

StatefulPartitionedCall/model/dense_1/MatMul/ReadVariableOp:0 f4 [80, 4]
00000000: 20de 30bd cc9d cb3d c692 91bd 4099 0f3e
00000010: 444d dc3d 1cf9 7dbd d0a2 86bd fc48 593e
00000020: 6c4a 6b3e 06a5 54be eccb a23d d01d 453e
00000030: 3ebc 503e 9a11 16be d336 30be 62af 5bbe
00000040: d66a 283e 9af7 cdbd 602b 263c 3e05 17be
00000050: c73b 79be 39cf 10be 8840 42be f045 893c
00000060: 02ef 79be f848 d63d 1057 803d 866c 1dbe
00000070: e8a4 503e 58b0 533e 9cb9 2dbd 005b 4cbe
00000080: a01b aebd 0073 caba ac33 1fbd 05de 87be
00000090: 92ff 5fbe d929 833e 0898 c63d e86d b8bd
000000a0: 765c 26be 975f 0abe 5026 b8bd 78a9 26be
000000b0: f6f3 013e 6e0e 453e 2064 5a3c 2adb 6d3e
000000c0: 24cc db3d decd 32be d61c 86be 102c 64be
000000d0: 7d15 03be b050 c9bd b465 87be 80b2 07be
000000e0: b8a6 d4bc ba40 76be 7a24 1d3e 543f 553e
000000f0: e601 783e e011 ce3c 6e19 1a3e 4825 6e3e
00000100: f2f1 0fbe c531 813e 473a 7abe 0000 a138
00000110: 9e9c 9abd 6440 fb3d a2f7 773e de7c 743e
00000120: 3f61 5dbe 2a36 743e 2853 433e 6542 69be
00000130: 4abf 8abd 76fc 573e 809e 55bc 68e2 6b3d
00000140: c015 5fbe c840 f63d 100d 803d d10f 843e
00000150: cad1 1abe 2a72 5d3e a0bf 793c f856 4e3d
00000160: 16e1 efbd 78bb e0bc 2af0 393e 566e 5bbe
00000170: 5c27 203e 60b5 82bc 70e7 f7bc cea2 0f3e
00000180: 98cf 053d 9bd2 883e 6080 a43c 36de 183e
00000190: 7524 27be 3cb0 b43d b847 053d 9eee 143e
000001a0: 1aab 753e 8f4f 813e 8c28 a1bd 5c04 cdbd
000001b0: 7862 903d 70e8 dfbc da9c 54be 8475 d83d
000001c0: 107d 323d e0f5 283e aeab 793e 044d 6dbd
000001d0: 70e5 513e 986b 93bd 028d 96bd b997 24be
000001e0: d04c a5bc 074f 87be c0e6 99bd 544c c33d
000001f0: c2cc 8cbd 36bb 04be e449 a1bd f84c a2bd
00000200: 14c8 5ebe 5eda 1e3e 4820 bebd 564e 343e
00000210: a0bc 7e3d 3637 243e 8d64 62be 4098 8d3c
00000220: 92ae 2f3e 00e0 2038 2e90 b9bd 244b 093e
00000230: 8433 823d 9e47 7b3e 3e6a 653e c4b0 25be
00000240: b5e8 813e c4f0 ba3d 043c 5abd 1872 a9bc
00000250: a046 963c 6678 183e e601 a2bd f2c9 2d3e
00000260: 2dce 7bbe cf8e 883e 4e8b 773e edc5 82be
00000270: 20a4 2cbd 9a5b 473e 1c96 e13d 3a24 fabd
00000280: 627e 53be 44f0 3bbe 8a45 18be 9c8a ea3d
00000290: fe13 4c3e dd4b 85be 920e 133e 9806 11be
000002a0: 3086 a1bd 60e3 3ebd 48c6 113d d2b0 1cbe
000002b0: 80c0 cdbc 6476 bb3d a829 46bd 6475 ad3d
000002c0: ce10 763e 0008 29bc 588f 023d 2430 86be
000002d0: 2799 833e a477 543e cd20 33be 3e12 063e
000002e0: 201f 503d babf 07be efa4 12be 5807 fd3d
000002f0: 905e ef3c 7029 c93d 8488 21be 4c78 68be
00000300: 4e81 3bbe 0ec7 e2bd aa91 32be 71f1 31be
00000310: 8596 823e eab9 70be 28b6 9ebd cca0 4fbe
00000320: 13be 883e 9e86 25be 2014 40bd 0049 b13a
00000330: 40c3 c5bb 902f 973c 3ea5 7b3e 94a4 b13d
00000340: 0867 243e b0c9 00bd 08da 1d3d 30da e83c
00000350: 70c0 6d3e 0c04 b03d e07d 4f3c 337e 2abe
00000360: 404e 03bd d798 80be c0e1 78bd 14ba 97bd
00000370: 78b8 e7bd beac 79be d26d 0fbe 9620 783e
00000380: 8a8b 46be da5a 75be 8662 663e 6495 cf3d
00000390: 7e0e 163e d0a7 dd3c 4e50 3fbe 00a5 eb3d
000003a0: 02e6 d1bd b05b f03c 46da 4ebe 6069 503e
000003b0: d498 e63d 5cb2 1cbe f4b3 2a3e 6caf 34be
000003c0: 3085 4abe 2c1f afbd 3c63 163e 2c6e cfbd
000003d0: 14d2 38be a007 8d3c c23d 88be 080c 613e
000003e0: 2040 97bc 822d 713e c9ed 833e 382e be3d
000003f0: 9494 13bd 6b96 75be 645b 87bd 22be 573e
-0.043180585 0.09942207 -0.07108073 0.14023304 0.10756925 -0.062005147 -0.06574023 0.21219248
0.22977608 -0.20766076 0.07949051 0.19249654 0.20384309 -0.14655152 -0.17208414 -0.21453622
0.16447005 -0.10056992 0.010142177 -0.14748093 -0.2433921 -0.14141549 -0.18969929 0.016756982
-0.2440758 0.104631364 0.06266606 -0.1537343 0.20375407 0.20672739 -0.04241334 -0.19956589
-0.08501363 -0.001544565 -0.038867638 -0.26536575 -0.21874836 0.25617865 0.096969664 -0.09005338
-0.16246209 -0.13513027 -0.089916825 -0.16275585 0.1269072 0.19243786 0.013329536 0.23228136
0.10732296 -0.17461345 -0.26193875 -0.22282434 -0.12801166 -0.09829843 -0.2644478 -0.13251686
-0.025958404 -0.24048129 0.15345946 0.20824939 0.24219474 0.025155008 0.15048763 0.23256409
-0.14057139 0.25233284 -0.24436294 7.677078e-05 -0.075494036 0.12268141 0.24215558 0.23875758
-0.21619128 0.23848787 0.1907469 -0.22779234 -0.06774767 0.210924 -0.013038278 0.057588965
-0.2178564 0.12024075 0.062524915 0.25793317 -0.1511909 0.21625581 0.015243441 0.05037591
-0.117128536 -0.027433142 0.18158022 -0.21428809 0.15640014 -0.015955627 -0.030261725 0.14026949
0.03266868 0.2672318 0.020080745 0.14928517 -0.16322501 0.088226765 0.0325391 0.1454415
0.23991051 0.2525601 -0.07869062 -0.10010597 0.070500314 -0.027332515 -0.20762959 0.10569289
0.0435763 0.16500044 0.24381897 -0.057934776 0.2049768 -0.07198256 -0.07351114 -0.16073503
-0.020178229 -0.2642748 -0.07514715 0.09536043 -0.06874992 -0.1296204 -0.07875422 -0.07924837
-0.21756011 0.15512988 -0.09283501 0.17608008 0.062191606 0.16036686 -0.2210867 0.017284513
0.17156437 3.835559e-05 -0.09060703 0.1340757 0.06357482 0.24539039 0.2240381 -0.16180712
0.25372854 0.09127954 -0.05327989 -0.020684287 0.018344223 0.14889678 -0.07910518 0.16971567
-0.24590369 0.26671454 0.24174234 -0.2554163 -0.04214871 0.19468537 0.11014959 -0.12213941
-0.2065368 -0.18353373 -0.14870277 0.11452219 0.19929501 -0.26034442 0.14361027 -0.14162672
-0.07886922 -0.04660356 0.035589486 -0.15301827 -0.025116205 0.091534406 -0.04837957 0.08469656
0.24029848 -0.010316849 0.031874985 -0.26208603 0.25702783 0.20748764 -0.17492981 0.13092896
0.050810933 -0.13256732 -0.1432073 0.12354916 0.029219896 0.09822357 -0.15774733 -0.2270214
-0.18311045 -0.11073123 -0.17438379 -0.17377259 0.25505462 -0.2350842 -0.07749587 -0.20276183
0.26707515 -0.16164634 -0.046894193 0.0013525784 -0.0060352385 0.018455297 0.24574754 0.08673969
0.16054928 -0.031442344 0.03853801 0.028424352 0.2321794 0.08594522 0.012664288 -0.16649704
-0.032057047 -0.25116608 -0.060762167 -0.074085385 -0.113144815 -0.24382302 -0.14006737 0.2423118
-0.19389167 -0.23960438 0.22498521 0.10135916 0.14653966 0.027057558 -0.18682978 0.115060806
-0.10248949 0.029340595 -0.20200452 0.20352697 0.112596184 -0.15302414 0.16670209 -0.17645043
-0.1977737 -0.085508674 0.14686292 -0.101284355 -0.18048888 0.01721555 -0.26609617 0.21977246
-0.018463194 0.23552516 0.25767353 0.09286159 -0.036030367 -0.23983161 -0.06609228 0.21068624

StatefulPartitionedCall/model/dense/MatMul/ReadVariableOp:0 f4 [80, 4]
00000000: a868 b93d a497 df3d 9594 01be 5bae 5ebe
00000010: eec5 dbbd a096 aa3c 5004 273d c68d 0e3e
00000020: 2d6e 00be 0e75 743e 889c 1d3e 27fa 82be
00000030: a21c 1e3e 365a 9cbd a0db 44bc 70fd 313e
00000040: a499 573e 00b2 2a3e 3092 29be 8842 71bd
00000050: 7c22 6ebd 34a3 483e c258 7f3e c6fb 3abe
00000060: 30a9 56bd 1c0c 0b3e a0ca cb3d 0c66 aa3d
00000070: 9c48 163e 9cdc 3c3e bcfd 3d3e 8e7a 743e
00000080: f616 773e 1203 97bd f8a7 273e 3b69 803e
00000090: e42c 3f3e 38cb 483d 1eca 42be 62e9 283e
000000a0: 6012 7bbe 1cb3 7cbd d894 6ebe 8107 843e
000000b0: e07b 503d ec29 3bbd bcf4 4abe 8081 893b
000000c0: bee1 603e 2c62 e53d 5cda b3bd b2c2 39be
000000d0: 7230 b0bd fcc7 6cbe 3656 203e 2233 01be
000000e0: da46 403e 72e0 05be 2852 a1bc 1446 2b3e
000000f0: 167f bbbd 2c6a 143e 1066 55bd 6c3d 483e
00000100: c8c0 3cbe e8d7 67be 6a0f 453e 4cc2 2fbd
00000110: 0b3f 82be c335 79be 546b 66be 44a1 2bbe
00000120: e0eb 86bd c879 bc3d c0ec a43c e57d 17be
00000130: 22a5 293e dc72 99bd 55ea 39be a423 c5bd
00000140: 40b4 ab3d 5af9 0bbe cca0 993d 0460 5fbe
00000150: 3b6f 863e 7ef2 583e 72dd fbbd 08f0 053e
00000160: 8c16 23be 40ff 5ebc f0fb 21be 4a16 1abe
00000170: 80a3 1d3b 4e12 353e ea54 4abe 742a 373e
00000180: 743b d9bd e016 cf3c 808e 3e3b c4b5 fe3d
00000190: c8ff 28bd a8ae 253e 5847 f1bd b391 79be
000001a0: 3ec5 19be 10e8 6e3d 20c7 65bd 4286 1bbe
000001b0: d66d 86be ee58 2fbe 30b9 4abd ac5a 24bd
000001c0: 6e6a 21be 248a 7cbe cfa5 823e c539 72be
000001d0: 3266 2fbe 0f6e 5dbe c8d6 83bd 55e2 28be
000001e0: b98b 57be 7a1a 3b3e 8e86 49be c8c2 743d
000001f0: 45ab 803e 16a0 a2bd 6296 34be 90a5 5b3e
00000200: 66b6 6dbe f415 d33d 6836 5a3e fea2 33be
00000210: 1859 9dbc d632 4e3e c25a 653e 788f cc3d
00000220: 5a8d d3bd aa51 773e f857 3d3e 6040 0c3c
00000230: 0031 42bc 5411 fd3d 0c39 14be 9220 053e
00000240: 52bc 35be 8080 1b3c a1e9 813e e6ff 6e3e
00000250: c06e e03d 7a3d 15be b066 df3c 9ea6 83be
00000260: 9204 0a3e 943c 5bbe d64b 523e d100 5dbe
00000270: 3254 4f3e b83c 87bd 60bd 9fbd 4087 4f3d
00000280: c49b ef3d be1b e2bd c834 35be aec0 5fbe
00000290: 8662 02be 3cfe 9a3d c0b2 3f3c 5426 50be
000002a0: 8404 813d e862 183d fa1e 033e 08ae 68be
000002b0: 6c5a 923d bcef 233e 7e6a 38be 30d3 20bd
000002c0: a86b 6c3d 4cbc 683e 8c90 553e 7401 6b3e
000002d0: c0ff 283e 80e1 32bb 400e aabd 2ca6 a5bd
000002e0: a010 54be 7819 eebd 00f1 8d3a d221 7f3e
000002f0: 8ce4 62bd 4c3a 23be 530d 81be c930 0abe
00000300: b27e 9ebd 4647 063e dc2b 983d be62 25be
00000310: 8e78 0ebe 9094 403e 6ed9 efbd 14b3 ab3d
00000320: 2c1a b3bd 6a97 44be 8c4a 1dbe 7254 38be
00000330: 80b1 7c3d 24ef 26be 410a 88be 64a4 6dbe
00000340: c4fb d53d 1eee 773e c048 02be 7f6d 85be
00000350: 2348 62be d1ae 3fbe b0e0 06bd f0c1 2cbe
00000360: 0058 043b 7e4b 4fbe cd60 70be 8056 383e
00000370: 5073 503d 78c6 673d 5310 77be 3205 1dbe
00000380: b231 76be 87a9 813e 06cd 41be 0691 82bd
00000390: e0de 623d 008a e33c 4833 1abd 1af1 11be
000003a0: 9634 593e 28ba 33bd c278 38be 0e7c 343e
000003b0: bc7e 413e c0b4 e03b 1a78 29be 0e21 353e
000003c0: 8995 36be ca90 7a3e e060 343c f826 4dbe
000003d0: 4031 fc3b 2ee3 d4bd 6414 613e c081 563e
000003e0: 9885 23bd eee8 043e 006c d3ba 5871 aebc
000003f0: 08d1 4d3e 32c0 25be 2274 81be 3eaa 8bbd
0.09053165 0.10917595 -0.12654336 -0.21746199 -0.107311115 0.020823777 0.040775597 0.1392127
-0.12542029 0.23872778 0.15391743 -0.25581476 0.1544061 -0.07634394 -0.012015253 0.17381835
0.21054703 0.16669464 -0.16559672 -0.05890134 -0.058138356 0.19593507 0.24936202 -0.18260106
-0.052407444 0.13578838 0.09950757 0.08320245 0.14676136 0.18443531 0.18553823 0.23874876
0.24129853 -0.073736325 0.16372669 0.25080284 0.18669468 0.04902193 -0.19022414 0.16495278
-0.24518728 -0.06169425 -0.23298967 0.25786975 0.050899386 -0.045694277 -0.19819921 0.004196346
0.21961114 0.112003654 -0.08781883 -0.18140677 -0.0860299 -0.23123163 0.15657887 -0.12617162
0.18777028 -0.130739 -0.019692495 0.16725951 -0.09155099 0.14493626 -0.052099288 0.1955468
-0.18432915 -0.22640955 0.19244161 -0.042909905 -0.25438723 -0.24336915 -0.2250188 -0.16760737
-0.06587958 0.092029154 0.020132422 -0.14794119 0.165669 -0.07492611 -0.18155797 -0.096259385
0.08383989 -0.13669339 0.07501373 -0.21813971 0.26256737 0.21186253 -0.12298097 0.13079846
-0.1592657 -0.013610661 -0.15818763 -0.15047565 0.0024053752 0.17682764 -0.19758955 0.17887288
-0.10607043 0.025279462 0.0029076636 0.12437013 -0.041259557 0.16179907 -0.11781186 -0.24371986
-0.15016648 0.05832678 -0.056098104 -0.15187934 -0.26255673 -0.17123768 -0.049493015 -0.040125534
-0.15763256 -0.24662071 0.25517127 -0.2365485 -0.17128828 -0.21624015 -0.06437451 -0.16492589
-0.21049394 0.18271819 -0.19680235 0.05975607 0.25130668 -0.0794069 -0.17635491 0.21449876
-0.2321411 0.103069216 0.21309817 -0.17542645 -0.019207522 0.2013658 0.22397903 0.09988302
-0.10329695 0.24152246 0.18490589 0.00856027 -0.011852503 0.12356821 -0.14474887 0.13000706
-0.1774762 0.009491086 0.25373557 0.23339805 0.10958624 -0.14574233 0.027270645 -0.25713056
0.13478306 -0.21409827 0.20536742 -0.21582343 0.20246962 -0.06603378 -0.07799792 0.050666094
0.11699632 -0.11040448 -0.17695916 -0.21850845 -0.12732896 0.075680226 0.011700332 -0.20327121
0.062996894 0.0372037 0.12804785 -0.22722638 0.07146153 0.1600942 -0.18009374 -0.039263904
0.057719857 0.2272808 0.20855922 0.22949773 0.16503811 -0.0027295053 -0.08303499 -0.080883354
-0.20709467 -0.116259515 0.001082927 0.24915245 -0.05539374 -0.15940207 -0.25205478 -0.13495173
-0.07739009 0.13113126 0.074302405 -0.16150948 -0.13913175 0.18806672 -0.11711393 0.08383766
-0.08745226 -0.19198385 -0.15360469 -0.18000963 0.061692715 -0.16302162 -0.26570323 -0.23207241
0.10448411 0.24211928 -0.12723064 -0.260601 -0.2209783 -0.18719031 -0.032929122 -0.16870856
0.0020194054 -0.20243642 -0.23474427 0.18001747 0.05089122 0.05658576 -0.24127321 -0.15334013
-0.24042395 0.25324652 -0.18925866 -0.06375317 0.05538833 0.027775764 -0.03764656 -0.14252129
0.21211466 -0.043878704 -0.18014815 0.17625448 0.18896002 0.0068574846 -0.16549721 0.1768839
-0.1783048 0.24469295 0.011009425 -0.20034397 0.0076963007 -0.103948936 0.21980435 0.20947933
-0.039922327 0.1297948 -0.0016130209 -0.02129428 0.2009927 -0.16186598 -0.25283915 -0.068195805

StatefulPartitionedCall/model/conv1d_1/conv1d/ExpandDims_1:0 f4 [80, 4, 1, 3]
00000000: 4084 67bc 5b4e bcbd c88e 773d 87a4 83bd
00000010: c0eb 6b3c 7897 9e3d 93a3 0c3e 1831 be3d
00000020: 48bd 393d 703f d03c f60e eb3d cecf d13d
00000030: 64a9 a5bd 02fb cabd 5e65 863d 8976 143e
00000040: 0eaf 10bd 49f9 153e 8076 473c 356d bbbd
00000050: a04e a73b 401e 103c e47b c9bd 6091 c23d
00000060: baf3 9c3d e2ba 7dbd 4c23 a7bd f484 813d
00000070: c1db 083e f76b ccbd 68d3 bf3d 20d6 02bd
00000080: d838 e8bc 40bb 503c 88dd 2d3d 9472 963d
00000090: 3061 30bc ede9 aebd 6d2b 0d3e 0a1e e53d
000000a0: 92cd c23d 28e7 a43c 1af3 d43d 8041 79bc
000000b0: f89a 843c 7099 b93d 5833 0cbd 0c20 55bd
000000c0: d577 073e 6021 febb 02a0 af3d 7db2 99bd
000000d0: 5060 b33d 8309 dbbd 0c9f 90bd 5290 4cbd
000000e0: a883 ecbd 780b a13c a00f 1a3c 0d04 0dbe
000000f0: 20ae 073c 7fb1 debd ea3a fb3d 5095 a3bd
00000100: 8df4 19be fcfb c33d 9ef8 10be d849 41bd
00000110: fe8e b83d 5ac8 0ebe 00af 15bd 0a4d 08bd
00000120: 3486 a9bd 2801 d9bc 8062 a5ba 5cb0 fcbc
00000130: 9b88 043e e462 edbd d80d dcbc ee4b e83d
00000140: 782e f2bd 9aae 883d 602a 87bc ceee 19bd
00000150: a0dd 11be e05d 253c 501a 7bbd a46a ab3d
00000160: 28ee 7dbd 7c34 d4bd 36d6 d4bd da08 3dbd
00000170: 6cd6 153d 04f9 863d 1ad2 cb3d 82db 15be
00000180: babb e13d fe9d e63d e0d5 a33b 3e51 d93d
00000190: 5aac b8bd 0402 cabd a80f 1fbd a83a f8bd
000001a0: b5d1 f0bd 04e9 b63d 3c20 2abd 7ee4 ce3d
000001b0: cdd4 173e 12f8 f23d 05cc 9dbd c60b d03d
000001c0: 865b ce3d f534 9dbd 2e79 cabd 6c3b ecbd
000001d0: b212 2abd d2b4 e33d 6857 bb3c 0884 6f3d
000001e0: 4e3e e9bd 38f3 973d 58ce dabc 2027 87bc
000001f0: 7451 39bd 80e5 243d b85d 9e3d 88a3 65bd
00000200: b0c5 02bc 8f61 1a3e 3c00 c23d e78c 103e
00000210: 564a b2bd 42c3 08be dcfc 01be 4cb7 14be
00000220: 5a97 d43d 7ad8 fd3d 045f 83bd b0d8 9a3c
00000230: adc0 86bd 6a6e 4cbd b0c2 38bd 3a14 14be
00000240: 89e6 01be 28cd ebbc ef33 96bd cab8 943d
00000250: 6348 85bd 18fc 463d 4e38 d03d c07c f13b
00000260: 3cb5 103d f6c2 a2bd 0eb4 ed3d c354 f7bd
00000270: e8f4 c5bd 3886 ef3c e89e d3bd c04f 3e3c
00000280: 6575 153e 422c d5bd b25e ec3d 18d8 fc3c
00000290: b61f d23d e96b 1dbe f805 ba3d 77f4 0ebe
000002a0: 680a aebc 8084 4f3c 2941 19be 2472 4a3d
000002b0: c240 59bd 119a 92bd a799 02be 00ca 99bd
000002c0: acc6 283d 5856 923d a503 16be 5861 7d3d
000002d0: 409b 603d 749e e2bd 1950 ecbd 185d 483d
000002e0: 6598 b0bd 28e5 d1bd 5841 d13c 5281 80bd
000002f0: 077c 8abd 054e 053e 072c 033e 406b 6c3d
00000300: a393 aabd be9b f43d 1e21 03bd 36f3 f23d
00000310: 0b62 023e 80da 9ebc 8026 4b3b 987e 11be
00000320: 9880 993c 1aaa 1cbd cb88 1dbe 6009 a13c
00000330: 32e8 d43d 76b0 fabd fff2 173e 3bc1 133e
00000340: 117f c6bd d22f e73d 3a61 f73d 3549 0fbe
00000350: 304d a2bc cd9c 96bd 4883 693d a9cf 11be
00000360: 35a1 0c3e e8e9 9e3d e716 163e 4074 7dbd
00000370: aa7b 983d 96a7 dcbd b6e5 18bd 3c37 c8bd
00000380: 8b70 87bd 087f 10bd 16d3 abbd 436f 05be
00000390: 2f1a 053e 5ffa 8bbd 44d7 13be 609a cf3b
000003a0: a247 07be ad57 033e 16c1 803d 2f58 003e
000003b0: 4e21 873d 2e7f 9dbd d039 323d c486 07bd
000003c0: 6018 ae3b a087 563c 28b9 513d 04cc 10be
000003d0: 466c 1fbd 02e3 6ebd 5774 043e 0872 013d
000003e0: df50 eabd 7296 f1bd 1203 03be 1445 aabd
000003f0: 301e c8bc 5041 64bc e780 1dbe d8a6 92bc
-0.014130652 -0.091946326 0.0604389 -0.064278655 0.014399469 0.07743734 0.13734274 0.09286708
0.04534653 0.025420874 0.11477463 0.10244714 -0.08088949 -0.09911157 0.06562303 0.14498343
-0.035323195 0.14645876 0.012174249 -0.09151689 0.0051058084 0.008796275 -0.098380834 0.09500384
0.07663675 -0.061945803 -0.08161029 0.06324187 0.1336508 -0.0998153 0.093664944 -0.031942487
-0.028347418 0.012739956 0.042447597 0.07346073 -0.010765359 -0.085407116 0.13786097 0.1118737
0.09511866 0.020129755 0.103979304 -0.01521337 0.016187176 0.09062469 -0.034228653 -0.052032515
0.13229306 -0.0077554435 0.08575441 -0.07504747 0.087586045 -0.106951736 -0.07061586 -0.049942322
-0.11548549 0.019658789 0.009403139 -0.13771077 0.008281261 -0.108736984 0.12267096 -0.079874635
-0.15034695 0.095695466 -0.1415734 -0.047189564 0.090116486 -0.13943616 -0.036543846 -0.033276595
-0.0827755 -0.02648981 -0.0012617856 -0.030845813 0.12942736 -0.115911275 -0.02686207 0.113426074
-0.118252695 0.066739276 -0.016499698 -0.037581258 -0.142447 0.010093182 -0.06130439 0.083699495
-0.0619947 -0.10361573 -0.1039242 -0.04615102 0.03658144 0.06590465 0.09952183 -0.14634517
0.11022134 0.11260603 0.004999861 0.10611199 -0.090172485 -0.09863666 -0.03883329 -0.12120563
-0.117587484 0.08931163 -0.041534647 0.10102175 0.14827271 0.11863722 -0.07704929 0.101584956
0.100760505 -0.076761164 -0.098863944 -0.11534771 -0.041521735 0.11118473 0.022868827 0.058475524
-0.11388837 0.07419437 -0.02670972 -0.016498148 -0.045243695 0.04025793 0.07732719 -0.05606416
-0.007981703 0.15076278 0.09472701 0.1411625 -0.08705585 -0.13355735 -0.12694114 -0.14523047
0.103804305 0.12394805 -0.06414607 0.018902153 -0.06579719 -0.049909987 -0.045107543 -0.14460841
-0.12685598 -0.02878435 -0.07334124 0.07261808 -0.06507947 0.04858026 0.10166989 0.0073696077
0.03532909 -0.07947342 0.11606608 -0.12076714 -0.09665853 0.029238805 -0.10333043 0.011615694
0.14595564 -0.10408832 0.11541499 0.03086476 0.10259955 -0.15373196 0.0908317 -0.13960443
-0.021245196 0.012665868 -0.14966263 0.04942526 -0.053040273 -0.07158292 -0.12753926 -0.075092316
0.041205093 0.07145375 -0.14649828 0.061860412 0.054835558 -0.11065379 -0.11538715 0.048916906
-0.08622817 -0.10248786 0.025543854 -0.06274666 -0.067619376 0.13018043 0.12809764 0.05771947
-0.08328941 0.11943768 -0.032014005 0.11862795 0.12732713 -0.019391298 0.003099829 -0.14208448
0.018738076 -0.03824816 -0.15384214 0.01965779 0.1039585 -0.122406885 0.1483879 0.1442918
-0.09692205 0.11288418 0.12079091 -0.1399277 -0.019812196 -0.07354126 0.057009965 -0.14239372
0.1373337 0.07759458 0.14657174 -0.061878443 0.07445462 -0.10774152 -0.037328444 -0.0977616
-0.06613263 -0.035277396 -0.08389871 -0.13030724 0.1299827 -0.06834864 -0.14437586 0.0063355416
-0.1321092 0.12826414 0.06286828 0.1253364 0.06598149 -0.07690273 0.043512166 -0.033087507
0.0053129643 0.013093859 0.05120197 -0.14140326 -0.038921617 -0.05832196 0.12935005 0.03160289
-0.11441206 -0.11796273 -0.1279414 -0.08313957 -0.024428457 -0.013931587 -0.15381204 -0.017901823

StatefulPartitionedCall/model/conv1d/conv1d/ExpandDims_1:0 f4 [80, 4, 1, 3]
00000000: d021 953c 002f 7c3c 919a a6bd 2e2f d63d
00000010: 46e3 8a3d 4e47 12be cca0 b83d 3681 b03d
00000020: c06c 033c 5044 f83c 0e5b 903d c0a6 c7bc
00000030: 2d27 d4bd 520c ff3d 103a 993c 4c16 463d
00000040: d234 bcbd 8167 013e 607b c33b a0b0 81bd
00000050: c66f 8c3d 8983 183e adad 98bd 4635 0ebe
00000060: 48a9 803c c48a 253d 4941 09be f618 a53d
00000070: 4e47 f33d d880 c93c 200d c1bd 687e 843d
00000080: 58a0 0abd 4a38 cc3d e8a4 b13d a17e 153e
00000090: e213 24bd 5a99 8bbd d84d 11be 2ee6 ef3d
000000a0: 1acb 37bd 1eda 57bd 4bb4 183e 0e19 61bd
000000b0: 084c f93c c59d 94bd d8f2 c53c e786 dbbd
000000c0: b257 fa3d c866 ed3c d414 543d c2a7 e33d
000000d0: dea9 03bd 4f51 96bd 7c68 5a3d a21f ab3d
000000e0: f616 a33d d0e8 ccbc fbed 1b3e eb7c 04be
000000f0: 80dc e43a 9662 9a3d 1325 a7bd e492 0cbe
00000100: fc47 3f3d 1c26 92bd 205c d63c 01fd 033e
00000110: 5a78 9dbd 2c35 d3bd 2d4a 00be 4585 babd
00000120: 9e3d 14be 1686 02bd b8f1 783d 56ad 82bd
00000130: 4cc0 eabd 20ee c3bb 90ee 39bc bc21 443d
00000140: 6f94 1c3e 82e4 47bd ea3b ce3d 203e e8bd
00000150: d86f 163d e7a2 eabd eddf 8bbd 7c31 9f3d
00000160: 825b e23d c0bb e53b 348f 3d3d c0f6 653d
00000170: 2a60 d13d ee8f c7bd 308a c2bc 20fc bdbb
00000180: f908 1dbe 4694 35bd 75be 0ebe 863d bd3d
00000190: 36a0 fe3d 781a 873c ab16 1b3e e0f4 d03c
000001a0: 3046 c2bd 98e4 d8bc 64b2 00be 5c63 aa3d
000001b0: 661d fc3d a1f0 153e 7489 a13d 1cf6 92bd
000001c0: cce3 b33d 402e d1bd 0d39 083e 5d39 0cbe
000001d0: d687 16be de3e 0dbd 1fab fabd b141 b4bd
000001e0: 87f7 0c3e e523 06be 2a74 03be 8810 83bd
000001f0: d374 a4bd 90d8 90bd 4664 b23d 38e1 123d
00000200: 90ae d4bc 50a1 f63c fb3d aabd 1434 97bd
00000210: 4154 0bbe 90ef 153c e3a6 173e 2f61 1b3e
00000220: c0fb 7dbc 9800 e7bc 743c f6bd 14c1 293d
00000230: 105a e0bd 0603 ee3d 310f 9fbd e781 003e
00000240: 430a 05be 7d1b 9cbd ff94 10be b492 16be
00000250: ad4e d4bd b5d6 94bd 2750 14be 0c5e 17be
00000260: a81e f9bd f043 363c f0c3 aa3d fe42 a73d
00000270: 5434 733d c424 8a3d 2eb7 f33d 8ee2 fe3d
00000280: 5f14 163e 5504 04be ce86 0dbe c6c2 1bbe
00000290: c1d4 c5bd 9e48 e33d dc0c a83d 914d babd
000002a0: e812 c9bd 8059 c0ba 2d7d 19be 18de d23c
000002b0: d08b c2bc 5027 1abd bedd e33d 54ca bd3d
000002c0: 1e65 08bd 70ad ecbc ae63 05be c07f 9d3b
000002d0: 9c30 13bd dcac c9bd f62a f43d bee8 943d
000002e0: 9028 613d 2c47 09bd e02f 283c 709c bd3c
000002f0: e6c9 f23d dc50 45bd 70bd 9a3c 73cc 1a3e
00000300: 21ed 0c3e 10e0 a6bd 08d5 b4bd aa21 0abd
00000310: d8d6 b6bd 2ab1 c53d e31b 92bd a03e 58bc
00000320: 9eba 00be c8f2 4ebd 7854 ed3c 84b1 b3bd
00000330: 19bf febd 362e 11be 5f13 13be 60b1 f43c
00000340: 4af4 f0bd 00d2 e6b9 16c3 a13d 602e 5a3d
00000350: 261c b33d 42b8 cd3d 600f e2bd e2c5 06bd
00000360: 3606 bb3d 15e7 1d3e 1a38 fe3d 29f4 0c3e
00000370: 9a1e e93d faa3 a13d 5899 853c 3829 b3bc
00000380: 8586 12be 04bb 17be 00a1 0ebd 18ff 0ebe
00000390: dce9 943d 2c75 073d fc84 6c3d 3beb 01be
000003a0: 125e c43d 48e5 91bd 5f74 c5bd 6ad7 db3d
000003b0: dc55 2d3d 08ec 953d 3083 f93c 3e5a 09be
000003c0: d25d 0cbd e2a8 b03d f8df 1e3d 923f dabd
000003d0: 60d3 9a3c 009a e83b 8e83 c63d 688c 38bd
000003e0: 2123 d9bd f74e 0d3e b715 9bbd 0255 d73d
000003f0: 9ea4 e03d a99b 1abe 2641 ad3d ba2a b93d
0.0182046 0.015392065 -0.0813495 0.104582176 0.0678163 -0.14285013 0.090150446 0.08618395
0.0080215335 0.030306011 0.07048617 -0.024371505 -0.10359035 0.12453522 0.018704444 0.048361108
-0.09189762 0.1263714 0.005965635 -0.06332517 0.068572566 0.14893927 -0.07455001 -0.1388751
0.01570572 0.04041554 -0.1340381 0.080614015 0.11878835 0.02459757 -0.094263315 0.064694226
-0.033844322 0.09971674 0.086740315 0.14599086 -0.040058024 -0.06816359 -0.14189851 0.11713825
-0.044871427 -0.052698247 0.14912526 -0.054955535 0.030431762 -0.07256655 0.024163648 -0.1071909
0.12223758 0.028979674 0.051777676 0.11115982 -0.03214442 -0.07339727 0.0533223 0.08355643
0.07963364 -0.025013357 0.15227501 -0.12938277 0.0017460734 0.07538335 -0.08161368 -0.1372791
0.04669951 -0.07136175 0.026166975 0.12889482 -0.07688971 -0.10312876 -0.12528296 -0.091074504
-0.1447663 -0.031866156 0.060777396 -0.063807175 -0.11462459 -0.0059793144 -0.011348382 0.047883734
0.15290998 -0.048801906 0.100700215 -0.113399744 0.036727756 -0.114568524 -0.0682982 0.0777311
0.1105261 0.007010907 0.046279147 0.056143522 0.1022342 -0.09744249 -0.023747534 -0.005797878
-0.15335454 -0.044330858 -0.13939841 0.0924025 0.124329016 0.016492113 0.15145366 0.02550739
-0.094860435 -0.02647619 -0.1256805 0.083197325 0.12310295 0.14642574 0.07887545 -0.07175848
0.08783683 -0.102138996 0.13303013 -0.13693757 -0.14700255 -0.034483783 -0.1223967 -0.08801592
0.13766299 -0.1309963 -0.12837282 -0.063996375 -0.08030095 -0.07072556 0.08710532 0.035859317
-0.025962144 0.030106217 -0.08312603 -0.0738298 -0.13606359 0.009151354 0.14809756 0.15173791
-0.015501916 -0.028198525 -0.12023249 0.0414439 -0.10954678 0.116216704 -0.077665694 0.12549554
-0.12992196 -0.076224305 -0.14119337 -0.147044 -0.10366569 -0.072675146 -0.144837 -0.1478197
-0.1216405 0.011124596 0.08338153 0.081670746 0.059376076 0.06745294 0.11900173 0.124455556
0.14656208 -0.12892278 -0.13820955 -0.15211019 -0.0965972 0.11097835 0.08205578 -0.09096826
-0.09818059 -0.001467511 -0.14989157 0.025740668 -0.023748308 -0.037635148 0.11126278 0.09267107
-0.033299558 -0.028891295 -0.13026306 0.0048064888 -0.03593503 -0.098474234 0.11922257 0.072709545
0.054970324 -0.03351514 0.010265321 0.023145884 0.11854915 -0.048172817 0.018889159 0.15117054
0.13762332 -0.08148205 -0.08829695 -0.03372351 -0.08927697 0.09652932 -0.07134225 -0.013198525
-0.12571189 -0.050524503 0.028970942 -0.08774093 -0.12438793 -0.14177784 -0.14362858 0.029869735
-0.117653444 -0.0004402548 0.07898538 0.053266883 0.08745603 0.1004491 -0.11038089 -0.03290356
0.09132044 0.15420182 0.12413044 0.13765015 0.1138279 0.07892604 0.016308472 -0.02187024
-0.14309128 -0.14817435 -0.03482151 -0.13964498 0.07271168 0.03307073 0.05774401 -0.1268739
0.09588255 -0.0712381 -0.09641337 0.10734446 0.04231821 0.0732041 0.030458063 -0.13413331
-0.03426916 0.08625962 0.038787812 -0.10656656 0.01889962 0.0070984364 0.09693061 -0.045055777
-0.106024034 0.13799654 -0.07572501 0.10514261 0.10968898 -0.15098442 0.08459692 0.090413526
