MCU/encoder.tflite (tflite, 283264 bytes, 10 tensors)

model/conv1d/conv1d/ExpandDims_1 f4 [80, 1, 3, 4]
-0.035040915 -0.082113385 0.12898786 0.14391594 -0.12892383 -0.037909336 0.103879794 0.12528075
0.07550612 -0.1364893 -0.06976008 0.14914711 -0.049695432 -0.1161681 0.13190998 0.007267475
-0.054097988 -0.10452154 -0.039839387 0.042657927 -0.048075363 -0.018905714 0.028922096 0.1416233
0.06820494 -0.045475394 -0.0830235 0.069120646 0.027810857 -0.053087875 -0.094413675 -0.14350048
0.023109943 0.054233998 -0.117440954 -0.04677727 -0.13817371 0.021746472 0.0072310567 -0.05266024
-0.08169999 -0.08091911 -0.013410181 -0.07221856 0.058582127 -0.11986655 0.10376485 -0.00125435
0.053983644 -0.14590463 0.007482797 0.07355124 -0.12841682 0.07597311 -0.13468173 -0.07998313
0.012698501 0.014469475 -0.14016078 -0.07948475 -0.11162259 -0.018843144 0.057062835 0.04203321
-0.080969505 0.14599071 0.019659191 -0.15241216 0.10640679 -0.08449336 -0.11818479 -0.12185778
-0.096254475 0.101903394 -0.023555607 -0.060132228 0.08181439 0.122257784 0.025767237 -0.15187696
-0.15424575 -0.12368798 0.078450695 -0.007229328 0.13067134 -0.106801234 -0.033997692 -0.11633306
0.040162504 -0.058079854 0.11843513 0.100932434 -0.11524474 0.11301686 -0.12330031 -0.12109427
-0.03846676 -0.14930972 -0.14235668 -0.06877454 0.050313592 0.08338466 -0.09765061 0.12645327
-0.13893794 -0.06758483 0.025245056 -0.011024535 0.013624251 0.07997407 -0.012830272 -0.121855825
-0.14286344 0.045683876 0.08309528 -0.07267526 0.017889142 -0.12519374 0.04597561 -0.11968963
0.14236332 0.04237303 0.11705439 -0.06834709 0.02609764 0.013445497 -0.07042352 -0.10067193
-0.018899754 -0.08117387 0.028761908 -0.11204581 0.0946517 0.11181106 -0.028301835 0.001996532
-0.04976408 0.14642294 0.14234321 0.14998896 -0.031302623 0.12407614 -0.0040916055 -0.0137601495
0.10966812 -0.07460269 0.052768692 -0.13486093 -0.025592119 0.06588431 0.10285096 -0.07059522
-0.002361834 -0.13790357 -0.047359712 -0.061236374 -0.037529126 -0.14042343 -0.124659576 0.006874278
0.015058607 -0.085510425 -0.12966138 -0.06546127 0.117463335 -0.14779142 -0.059954867 0.08302884
0.024345562 0.06451878 -0.04492507 0.06383999 -0.080908366 -0.13884902 -0.11656012 -0.016758904
0.011973128 -0.14358085 0.117820814 0.052233607 0.12928756 -0.13182986 -0.020767525 0.07118222
-0.1189816 0.07637319 0.10137816 0.08677709 -0.0681169 0.08914769 -0.15212962 0.13900046
0.00018298626 -0.08089674 0.000487566 0.029907927 0.14501272 0.016492963 -0.13288787 -0.124756664
-0.12374512 0.15114604 -0.0528344 -0.010943338 -0.06207674 0.037961543 -0.07610353 -0.041696005
0.13905011 0.053177193 -0.07843035 0.08079046 0.017294109 -0.036780067 0.073847756 -0.033801205
0.08991507 0.14401124 0.11924483 -0.013438538 0.14403252 -0.08728769 0.08231205 0.025070935
0.0021726787 0.10406725 0.019939303 0.05806032 0.13821946 -0.09678468 -0.048510134 -0.008755699
-0.11923452 -0.1396353 -0.0564557 0.018512785 0.100151524 0.076738656 -0.15264845 -0.12792102
0.07403222 -0.08926939 -0.083512865 -0.091174535 0.08119716 0.099533156 0.07999781 0.025833637
-0.14465263 -0.10009538 0.017316848 0.12976612 0.14855729 -0.07996197 0.025837764 0.11961849
00000000: 1087 0fbd 102b a8bd 6515 043e b35e 133e
00000010: 9c04 04be d246 1bbd eebe d43d 9949 003e
00000020: f4a2 9a3d dac3 0bbe 5fde 8ebd 05ba 183e
00000030: 708d 4bbd 8ae9 edbd 6913 073e 0024 ee3b
00000040: da95 5dbd 640f d6bd a02e 23bd 14ba 2e3d
00000050: acea 44bd 28e0 9abc 08ee ec3c b305 113e
00000060: 08af 8b3d 6844 3abd 3a08 aabd 208f 8d3d
00000070: 98d3 e33c ac72 59bd f55b c1bd caf1 12be
00000080: 1051 bd3c 7824 5e3d e284 f0bd 8699 3fbd
00000090: 697d 0dbe a825 b23c 80f2 ec3b 44b2 57bd
000000a0: 5352 a7bd ebb8 a5bd 60b6 5bbc 53e7 93bd
000000b0: d0f3 6f3d 987c f5bd aa82 d43d 0069 a4ba
000000c0: f41d 5d3d 0668 15be 4032 f53b 08a2 963d
000000d0: b37f 03be ca97 9b3d 02ea 09be 32ce a3bd
000000e0: 600d 503c 6011 6d3c 4f86 0fbe e7c8 a2bd
000000f0: 629a e4bd f05c 9abc b8ba 693d 042b 2c3d
00000100: 57d3 a5bd 977e 153e 500c a13c ef11 1cbe
00000110: ceeb d93d db0a adbd de0a f2bd 9290 f9bd
00000120: 1121 c5bd bab2 d03d b0f7 c0bc 364d 76bd
00000130: 4e8e a73d 4a62 fa3d d015 d33c a285 1bbe
00000140: 99f2 1dbe 2050 fdbd c2aa a03d 00e4 ecbb
00000150: b5ce 053e 9bba dabd 2a41 0bbd 0740 eebd
00000160: 7081 243d 24e5 6dbd 1e8e f23d aab5 ce3d
00000170: 6f05 ecbd 6275 e73d df84 fcbd 4600 f8bd
00000180: 528f 1dbd a6e4 18be f3c5 11be abd9 8cbd
00000190: a015 4e3d 94c5 aa3d 0bfd c7bd f77c 013e
000001a0: bf45 0ebe ea69 8abd b8ce ce3c 40a0 34bc
000001b0: 4038 5f3c 72c9 a33d 1036 52bc 8c8f f9bd
000001c0: cb4a 12be 041f 3b3d dc2d aa3d c4d6 94bd
000001d0: 408c 923c ca32 00be ec50 3c3d d61f f5bd
000001e0: b1c7 113e 588f 2d3d 36ba ef3d 8ff9 8bbd
000001f0: b8ca d53c 804a 5c3c 353a 90bd 162d cebd
00000200: a8d3 9abc 7c3e a6bd 189e eb3c 4678 e5bd
00000210: c0d8 c13d 32fd e43d 40d9 e7bc 40d8 023b
00000220: 6cd5 4bbd e5ef 153e 6bc2 113e b596 193e
00000230: 2e37 00bd a21b fe3d e012 86bb 4072 61bc
00000240: ae99 e03d 4cc9 98bd fc23 583d fc18 0abe
00000250: 90a6 d1bc 5aee 863d 86a3 d23d 3a94 90bd
00000260: 00c9 1abb 9836 0dbe 42fc 41bd fed2 7abd
00000270: 24b8 19bd 29cb 0fbe 854d ffbd a041 e13b
00000280: 60b8 763c 1720 afbd f4c5 04be 8f10 86bd
00000290: 9e90 f03d a256 17be 3c93 75bd 060b aa3d
000002a0: 5870 c73c 6c22 843d 5a03 38bd 8abe 823d
000002b0: 49b3 a5bd 702e 0ebe 12b7 eebd f849 89bc
000002c0: f02a 443c dc06 13be 0a4c f13d e8f2 553d
000002d0: f563 043e 68fe 06be a820 aabc fcc7 913d
000002e0: a0ac f3bd 8c69 9c3d 5a9f cf3d 30b8 b13d
000002f0: e080 8bbd 1093 b63d dec7 1bbe 2356 0e3e
00000300: 00e0 3f39 31ad a5bd 00a0 ff39 7801 f53c
00000310: 377e 143e 401c 873c c213 08be 6c80 ffbd
00000320: 156e fdbd 07c6 1a3e e268 58bd b04b 33bc
00000330: 2e44 7ebd 907d 1b3d 2bdc 9bbd 6ec9 2abd
00000340: 2763 0e3e 54d0 593d 17a0 a0bd 7875 a53d
00000350: 60ac 8d3c b2a6 16bd 7e3d 973d 2273 0abd
00000360: 6425 b83d af77 133e a236 f43d 502d 5cbc
00000370: 437d 133e e3c3 b2bd 3893 a83d 9061 cd3c
00000380: 8063 0e3b 3621 d53d c057 a33c a8d0 6d3d
00000390: 6789 0d3e 0c37 c6bd 90b2 46bd 1074 0fbc
000003a0: 3a31 f4bd 8efc 0ebe 183e 67bd 20a8 973c
000003b0: 3e1c cd3d 2829 9d3d e04f 1cbe bafd 02be
000003c0: 349e 973d dfd2 b6bd cb08 abbd b7b9 babd
000003d0: b24a a63d 0ad8 cb3d e4d5 a33d 10a1 d33c
000003e0: d21f 14be cefe ccbd 10dc 8d3c 69e1 043e
000003f0: 671f 183e 1ac3 a3bd b8a9 d33c 8afa f43d

model/conv1d/conv1d_bias f4 [80]
0.0 0.0 0.0 0.0 0.0 0.0 0.0 0.0
0.0 0.0 0.0 0.0 0.0 0.0 0.0 0.0
0.0 0.0 0.0 0.0 0.0 0.0 0.0 0.0
0.0 0.0 0.0 0.0 0.0 0.0 0.0 0.0
0.0 0.0 0.0 0.0 0.0 0.0 0.0 0.0
0.0 0.0 0.0 0.0 0.0 0.0 0.0 0.0
0.0 0.0 0.0 0.0 0.0 0.0 0.0 0.0
0.0 0.0 0.0 0.0 0.0 0.0 0.0 0.0
0.0 0.0 0.0 0.0 0.0 0.0 0.0 0.0
0.0 0.0 0.0 0.0 0.0 0.0 0.0 0.0
00000000: 0000 0000 0000 0000 0000 0000 0000 0000
00000010: 0000 0000 0000 0000 0000 0000 0000 0000
00000020: 0000 0000 0000 0000 0000 0000 0000 0000
00000030: 0000 0000 0000 0000 0000 0000 0000 0000
00000040: 0000 0000 0000 0000 0000 0000 0000 0000
00000050: 0000 0000 0000 0000 0000 0000 0000 0000
00000060: 0000 0000 0000 0000 0000 0000 0000 0000
00000070: 0000 0000 0000 0000 0000 0000 0000 0000
00000080: 0000 0000 0000 0000 0000 0000 0000 0000
00000090: 0000 0000 0000 0000 0000 0000 0000 0000
000000a0: 0000 0000 0000 0000 0000 0000 0000 0000
000000b0: 0000 0000 0000 0000 0000 0000 0000 0000
000000c0: 0000 0000 0000 0000 0000 0000 0000 0000
000000d0: 0000 0000 0000 0000 0000 0000 0000 0000
000000e0: 0000 0000 0000 0000 0000 0000 0000 0000
000000f0: 0000 0000 0000 0000 0000 0000 0000 0000
00000100: 0000 0000 0000 0000 0000 0000 0000 0000
00000110: 0000 0000 0000 0000 0000 0000 0000 0000
00000120: 0000 0000 0000 0000 0000 0000 0000 0000
00000130: 0000 0000 0000 0000 0000 0000 0000 0000

model/conv1d_1/conv1d/ExpandDims_1 f4 [80, 1, 3, 4]
0.0836087 0.04792516 -0.063922286 0.15201582 -0.054524735 0.14926775 -0.034223214 -0.027835175
0.0006787181 -0.09650056 -0.13311198 -0.020385325 -0.033151813 0.11597158 0.08392158 -0.09491154
0.063292086 -0.115850575 -0.1058331 -0.1139802 0.098185286 -0.050543934 0.1037588 0.06812525
0.08550678 0.014543012 -0.100739986 -0.101066194 -0.017984897 -0.061434627 -0.12338735 -0.14107631
-0.12499748 0.0033821762 -0.14076449 0.12226866 0.009175748 -0.060878858 -0.112422965 -0.13455576
0.08509758 -0.1405256 0.042438105 0.08216889 -0.0568531 0.097732976 -0.004599586 0.0358226
-0.106539816 0.05338359 0.03766866 0.10151406 0.15195589 -0.12913048 -0.14689127 0.13501061
-0.020248592 0.12891327 0.07170601 -0.096929 -0.14617558 -0.08875976 0.0076543093 0.081260026
-0.1509186 0.104568824 -0.0061285645 -0.053944133 0.042270347 -0.10625139 -0.12439974 -0.100803964
-0.091441475 -0.08803067 -0.08829033 0.12220536 -0.042332783 0.111942455 0.022152185 0.12090738
-0.02635023 -0.07262103 -0.035530023 0.14388342 0.100430176 -0.11011417 -0.02613601 -0.037353605
0.1397851 0.002541557 -0.11406691 0.09823467 0.025217608 -0.102741376 -0.06284838 -0.09797056
0.10155623 -0.0243565 -0.025718495 0.026696995 -0.069247864 0.115979865 0.1520762 -0.01450184
0.088816404 -0.072304904 0.076907665 0.100229606 0.0012608618 0.018815443 0.15269439 -0.10417422
-0.05909317 -0.13306074 -0.14857508 0.06572291 0.016493335 -0.13258016 -0.10615747 -0.061756343
0.094688416 -0.07925438 -0.08781991 0.03211853 0.009098783 0.063677415 0.13638927 0.064123034
0.056961223 -0.14007305 -0.09135082 0.14923419 0.096321926 -0.09226249 0.13868706 0.09514618
0.01406391 0.061246082 -0.090841115 -0.10799962 0.075855464 -0.10410697 0.091509566 -0.119562455
0.116658494 -0.0638394 -0.15211041 0.13036452 0.06425463 -0.081643924 -0.023069844 -0.007425517
-0.09990691 -0.05348295 0.0452189 0.035702273 -0.08134063 0.007665351 -0.049529076 0.011234075
0.07477243 -0.07863055 -0.016225725 -0.04081808 -0.015663743 -0.08990105 -0.14121737 0.017467648
0.12523408 -0.08762346 0.08581555 0.11898078 0.085131496 -0.1377885 -0.074692495 0.043752536
0.03491947 -0.1069563 0.04429473 7.2583556e-05 -0.052239597 -0.07226786 0.14145218 0.07050453
-0.11580588 -0.10637742 -0.0011471063 -0.15082733 0.15269013 0.00067669153 0.019854143 0.11736481
-0.082862 -0.10221757 -0.023578003 0.11864664 0.0416438 -0.080972746 -0.06109771 -0.122128695
-0.14163819 -0.05872833 -0.041195236 0.13176166 -0.1349745 0.06007977 0.066138655 -0.03783466
-0.0021958053 -0.053344183 -0.087368585 0.08399396 0.15395753 -0.14474015 -0.012518153 -0.03246721
-0.13285118 0.10544591 -0.020450518 0.10501613 0.11229579 -0.09605309 -0.04055261 -0.002982065
0.14086322 -0.07646553 -0.13518438 -0.037175693 0.06402893 -0.13634849 0.14888187 -0.08541492
-0.08940061 0.06320287 0.128193 -0.04094886 0.051856413 0.046205312 0.14331411 0.06316024
0.13883828 0.09968136 0.019145846 -0.01889284 0.024742156 0.11623867 -0.06471626 -0.078216605
-0.0981435 -0.12557098 -0.0081117 0.128406 -0.081716545 0.06689787 -0.03330397 -0.035627693
00000000: 0a3b ab3d 2c4d 443d b0e9 82bd 09aa 1b3e
00000010: 5455 5fbd a5d9 183e a42d 0cbd 9806 e4bc
00000020: 00ec 313a 16a2 c5bd 824e 08be 20ff a6bc
00000030: 32ca 07bd 8282 ed3d 14df ab3d fb60 c2bd
00000040: 489f 813d 1143 edbd 06bf d8bd 736e e9bd
00000050: 5e15 c93d 2807 4fbd 7e7f d43d 4085 8b3d
00000060: 2e1e af3d d045 6e3c c450 cebd cbfb cebd
00000070: 1055 93bc e0a2 7bbd 82b2 fcbd 4f76 10be
00000080: aefe ffbd 80a7 5d3b 9124 10be fe67 fa3d
00000090: e055 163c 1c5c 79bd 033e e6bd fcc8 09be
000000a0: a447 ae3d f1e5 0fbe 94d3 2d3d 2a48 a83d
000000b0: ccde 68bd 3a28 c83d 20b8 96bb b8ba 123d
000000c0: 8c31 dabd c0a8 5a3d 744a 1a3d 9ae6 cf3d
000000d0: 539a 1b3e c83a 04be aa6a 16be 3940 0a3e
000000e0: 60e0 a5bc d701 043e 9ada 923d b682 c6bd
000000f0: 0daf 15be adc7 b5bd 00d1 fa3b a86b a63d
00000100: 688a 1abe 2e28 d63d 20d2 c8bb 86f4 5cbd
00000110: ac23 2d3d 549a d9bd 4ac5 febd 4f72 cebd
00000120: ab45 bbbd 6d49 b4bd 8fd1 b4bd ce46 fa3d
00000130: 2465 2dbd 1642 e53d 8078 b53c 4a9e f73d
00000140: 70dc d7bc 56ba 94bd ee87 11bd 2d56 133e
00000150: 56ae cd3d 8a83 e1bd 301b d6bc 1800 19bd
00000160: d323 0f3e 4090 263b ea9b e9bd 422f c93d
00000170: 2895 ce3c 126a d2bd a7b6 80bd caa4 c8bd
00000180: b6fc cf3d 4887 c7bc 98af d2bc a8b3 da3c
00000190: d3d1 8dbd da86 ed3d ddb9 1b3e 2099 6dbc
000001a0: 60e5 b53d 9814 94bd c481 9d3d 2e45 cd3d
000001b0: 8043 a53a d822 9a3c eb5b 1c3e 4b59 d5bd
000001c0: ae0b 72bd 1341 08be 1124 18be bc99 863d
000001d0: 081d 873c 18c3 07be 1669 d9bd 38f4 7cbd
000001e0: 00ec c13d 1f50 a2bd edda b3bd b88e 033d
000001f0: 1013 153c 4e69 823d a1a9 0b3e f052 833d
00000200: 2c50 693d 4f6f 0fbe 2416 bbbd d9d0 183e
00000210: 6e44 c53d 1ef4 bcbd fb03 0e3e 00dc c23d
00000220: 506c 663c 2cdd 7a3d e80a babd e82e ddbd
00000230: 1c5a 9b3d 0936 d5bd 5e69 bb3d 29dd f4bd
00000240: a6ea ee3d 3bbe 82bd d5c2 1bbe 477e 053e
00000250: ee97 833d ee34 a7bd f8fc bcbc c051 f3bb
00000260: fe9b ccbd f010 5bbd 7437 393d 8c3c 123d
00000270: eb95 a6bd a02d fb3b 00df 4abd 200f 383c
00000280: 4a22 993d 0e09 a1bd d0eb 84bc dc30 27bd
00000290: 4051 80bc 0b1e b8bd 499b 10be 5018 8f3c
000002a0: 5d3d 003e ee73 b3bd 10c0 af3d 32ac f33d
000002b0: 6c59 ae3d 6e18 0dbe 61f8 98bd dc35 333d
000002c0: b807 0f3d e80b dbbd 646e 353d 0038 9838
000002d0: 30f9 55bd 2c01 94bd d7d8 103e ae64 903d
000002e0: a22b edbd 68dc d9bd 805a 96ba 7b72 1abe
000002f0: cd5a 1c3e 0064 313a 28a5 a23c f65c f03d
00000300: 8db3 a9bd 7257 d1bd a826 c1bc 02fd f23d
00000310: b092 2a3d 0ad5 a5bd 9841 7abd 9c1e fabd
00000320: 9a09 11be 1e8d 70bd 56bc 28bd 87ec 063e
00000330: c136 0abe 3416 763d b473 873d 84f8 1abd
00000340: 80e7 0fbb 6e7f 5abd 4dee b2bd 0605 ac3d
00000350: 0ba7 1d3e c336 14be f018 4dbc 56fc 04bd
00000360: 240a 08be 06f4 d73d d887 a7bc b212 d73d
00000370: 56fb e53d 7cb7 c4bd 7e1a 26bd c06e 43bb
00000380: 733e 103e f699 9cbd c66d 0abe 8a45 18bd
00000390: 9a21 833d f09e 0bbe 7d74 183e 04ee aebd
000003a0: ab17 b7bd 8270 813d 0745 033e feb9 27bd
000003b0: 6467 543d c841 3d3d efc0 123e 285a 813d
000003c0: 9f2b 0e3e be25 cc3d c0d7 9c3c 28c5 9abc
000003d0: 10b0 ca3c 8a0e ee3d f589 84bd 0730 a0bd
000003e0: 76ff c8bd ae95 00be f0e6 04bc dd7c 033e
000003f0: 015b a7bd c001 893d be69 08bd 58ee 11bd

model/dense/MatMul/ReadVariableOp/transpose f4 [4, 80]
-0.10141504 0.21126789 -0.25545135 -0.21188891 0.0132911205 -0.18223405 -0.08854301 0.035402924
0.15331826 -0.23295093 -0.19120562 -0.16024508 0.09423041 0.016434789 -0.050768495 0.09044862
0.16138586 -0.13385306 -0.17196473 -0.24777208 0.12511238 -0.20116922 0.2081706 -0.0074476004
0.13299018 -0.05681783 0.24893007 0.16744903 -0.027785182 -0.17651612 0.21064866 -0.19397336
0.23436126 -0.21314304 -0.011865497 0.2501954 0.06437975 -0.071017325 0.063185185 0.17722818
-0.1914312 -0.13008001 -0.097628534 -0.20600449 0.14654431 0.20489752 -0.15652153 0.05200988
-0.044976413 0.0118303895 -0.026827991 -0.1610282 0.23416117 -0.026797727 -0.14179641 -0.24284314
-0.14294757 -0.2342259 0.25565693 -0.067767605 -0.10083124 0.11328921 0.06351417 0.24861827
-0.15492427 0.15040562 0.024877518 -0.17421174 -0.14134584 0.20491391 -0.076951444 -0.10871863
0.23355368 0.116466165 0.26181564 0.020609796 -0.08924617 0.18601817 0.041761786 0.20532656
0.2232756 -0.020407364 0.0220505 -0.1433506 0.012708187 -0.17920747 -0.07121308 -0.13322338
0.19359952 -0.16202122 -0.24684872 -0.13573834 -0.014372498 -0.17673168 -0.066897005 0.11421639
-0.18063122 -0.1700916 0.085630804 -0.1604744 0.18553 -0.1075082 -0.05267711 0.2142266
0.11263135 -0.1600829 -0.1606667 0.18568423 -0.22851034 0.07494828 0.20394325 -0.06089489
-0.20662709 0.25764617 -0.14029491 -0.13180886 0.091333956 0.12092471 0.18407553 -0.24731852
0.076980054 0.1518518 0.15834928 0.07617316 -0.106610835 -0.24692187 -0.08556984 0.2106688
-0.07748994 0.12948424 0.25470147 -0.16095391 -0.014508098 0.015914917 -0.053736076 -0.17840534
-0.19141623 -0.17779115 0.24999085 -0.24243361 -0.2398585 -0.22285423 -0.1692194 -0.22112328
0.23831597 0.0043833554 -0.034757122 0.042646736 -0.12841271 0.13253203 0.14594471 -0.18458536
-0.13645947 -0.013095111 -0.1003734 0.03718707 0.06364015 0.13729763 -0.040330008 -0.1269016
0.1946007 -0.10865733 -0.065740034 0.11635032 -0.19263914 0.24666998 0.24961838 -0.15132898
0.06254786 0.18778515 -0.18919851 0.24477527 -0.23562405 0.22802544 -0.11502245 -0.02912873
-0.06629822 0.20874572 0.15043736 -0.15798575 0.19010237 -0.16294815 -0.16122797 -0.11290051
0.09745374 0.2238571 -0.12857062 0.17105052 0.18884212 -0.04099232 0.2218588 0.20985076
-0.2246514 0.040460944 -0.21609028 0.24267414 0.1085214 0.16858202 -0.18254927 -0.12002486
-0.10909331 0.20923752 -0.17402518 0.065731496 -0.21635199 -0.2167139 0.016355991 0.07880321
0.1857909 0.05029437 0.098742306 0.24533013 -0.045605585 0.1559945 -0.25269273 -0.18961307
0.079110205 0.08801183 0.0053733885 -0.10472497 -0.20374802 -0.14966564 0.2140975 -0.02289398
0.14772448 0.09830785 0.2304492 -0.02716647 0.02812928 0.15313792 0.0134780705 -0.059073776
-0.008506 -0.09055574 0.2591655 -0.18601608 -0.25865883 0.03186965 -0.105034396 0.013181061
-0.22770141 0.16312733 -0.0286967 -0.20029026 -0.20373796 0.08554345 -0.1361136 -0.1941298
0.0004593432 0.20877147 0.0076955855 0.11457303 0.20717573 0.18439662 0.012089223 -0.25402027
00000000: b0b2 cfbd 9c56 583e 85ca 82be 68f9 58be
00000010: 00c3 593c 909b 3abe 0a56 b5bd a802 113d
00000020: 76ff 1c3e b08a 6ebe 68cb 43be 4917 24be
00000030: e0fb c03d 40a2 863c a0f2 4fbd 203d b93d
00000040: 5642 253e c710 09be 8617 30be f7b7 7dbe
00000050: 761d 003e 4eff 4dbe ac2a 553e 000b f4bb
00000060: 942e 083e d0b9 68bd 86e7 7e3e c277 2b3e
00000070: c09d e3bc a4c0 34be 48b4 573e f4a0 46be
00000080: 66fc 6f3e 2b42 5abe 8067 42bc 9d19 803e
00000090: 88d9 833d 8871 91bd 3c67 813d 4e7b 353e
000000a0: 8a06 44be b233 05be 78f1 c7bd d7f2 52be
000000b0: b60f 163e a8d0 513e 2e47 20be 5008 553d
000000c0: 3039 38bd 40d4 413c 60c6 dbbc 94e4 24be
000000d0: f2c7 6f3e e886 dbbc 1433 11be dfab 78be
000000e0: d960 12be ead8 6fbe 77e5 823e bec9 8abd
000000f0: 9c80 cebd 2c04 e83d b813 823d ca95 7e3e
00000100: 78a4 1ebe ee03 1a3e f0cb cb3c 9064 32be
00000110: f7bc 10be f4d4 513e b898 9dbd e0a7 debd
00000120: b228 6f3e d085 ee3d b30c 863e e0d5 a83c
00000130: b2c6 b6bd 8c7b 3e3e 680e 2b3d 2041 523e
00000140: 5ca2 643e 582d a7bc 40a3 b43c 80ca 12be
00000150: 0036 503c 2a82 37be 2ad8 91bd b66b 08be
00000160: f43e 463e e4e8 25be e9c5 7cbe fefe 0abe
00000170: a07a 6bbc 26f9 34be 4c01 89bd 48ea e93d
00000180: 64f7 38be 7e2c 2ebe 345f af3d 6753 24be
00000190: 94fb 3d3e 422d dcbd f4c3 57bd 385e 5b3e
000001a0: 44ab e63d c6ec 23be d085 24be 0224 3e3e
000001b0: 9dfe 69be 7c7e 993d 80d6 503e ec6c 79bd
000001c0: 0d96 53be 33ea 833e 78a9 0fbe e7f8 06be
000001d0: 4c0d bb3d 60a7 f73d 4c7e 3c3e 1141 7dbe
000001e0: b8a7 9d3d 0a7f 1b3e 5026 223e ac00 9c3d
000001f0: c856 dabd 16d9 7cbe 3e3f afbd 90b9 573e
00000200: 0cb3 9ebd 8497 043e 3b68 823e 1ad1 24be
00000210: 60b3 6dbc 0060 823c 5c1a 5cbd e4af 36be
00000220: 9e02 44be e20e 36be 9afd 7f3e 8440 78be
00000230: 779d 75be e633 64be da47 2dbe 246e 62be
00000240: 1a09 743e 40a2 8f3b 7c5d 0ebd 58ae 2e3d
00000250: 9f7e 03be 7ab6 073e 8872 153e f203 3dbe
00000260: 08bc 0bbe e08c 56bc 9290 cdbd 7851 183d
00000270: c455 823d c097 0c3e 1431 25bd 7ef2 01be
00000280: 6845 473e bc87 debd b6a2 86bd 1449 ee3d
00000290: 3243 45be 0e97 7c3e f69b 7f3e fcf5 1abe
000002a0: 1819 803d c04a 403e 41bd 41be 5ea6 7a3e
000002b0: 6e47 71be 807f 693e e490 ebbd 609f eebc
000002c0: 5cc7 87bd 70c1 553e 400c 1a3e 04c7 21be
000002d0: 32aa 423e e1db 26be f218 25be 6238 e7bd
000002e0: d495 c73d cc3a 653e 04a8 03be de27 2f3e
000002f0: d45f 413e 90e7 27bd f42e 633e 1ee3 563e
00000300: 040b 66be 60ba 253d c546 5dbe 927f 783e
00000310: 7840 de3d c4a0 2c3e 32ee 3abe 98cf f5bd
00000320: 506c dfbd 5c42 563e a833 32be 3c9e 863d
00000330: 608b 5dbe 40ea 5dbe 00fd 853c 9463 a13d
00000340: f83f 3e3e 7801 4e3d 6839 ca3d d237 7b3e
00000350: eccc 3abd 06bd 1f3e f160 81be ee29 42be
00000360: 8804 a23d 8c3f b43d 4013 b03b 0c7a d6bd
00000370: 52a3 50be f341 19be 603c 5b3e 288c bbbc
00000380: 1645 173e a055 c93d e0fa 6b3e 388c debc
00000390: 606f e63c 30d0 1c3e 20d3 5c3c 58f7 71bd
000003a0: c05c 0bbc 4a75 b9bd 57b1 843e 007b 3ebe
000003b0: ee6e 84be c089 023d 461c d7bd 60f5 573c
000003c0: 8f2a 69be da0a 273e 5815 ebbc e418 4dbe
000003d0: afa0 50be 6831 af3d 5d61 0bbe f6c9 46be
000003e0: 00d4 f039 30c8 553e 402b fc3b 44a5 ea3d
000003f0: e025 543e 78d2 3c3e e011 463c f20e 82be

model/dense/MatMul_bias f4 [4]
0.0 0.0 0.0 0.0
00000000: 0000 0000 0000 0000 0000 0000 0000 0000

model/dense_1/MatMul/ReadVariableOp/transpose f4 [4, 80]
0.08336112 -0.23766041 0.22824621 -0.06420234 -0.049084127 0.040825486 0.045721352 0.016367197
0.15331808 -0.23384874 0.12018651 -0.25863564 0.20180157 -0.08705993 -0.23655449 -0.2597684
0.24301597 0.05313188 -0.02965206 0.14716959 0.22049767 -0.25223204 -0.08459811 0.06289807
-0.08298497 0.23538974 -0.024936646 0.16452318 -0.14188924 0.22621635 0.031070977 -0.25143006
-0.20376441 0.015975267 -0.030117795 -0.047478884 0.24013945 0.23439458 -0.114132285 0.13110349
-0.020267814 -0.09088728 -0.2511291 -0.17565048 -0.24506997 -0.0020835698 0.22088 0.24186286
-0.11569196 -0.053004175 0.15385237 -0.14028044 0.21476573 -0.22353056 -0.05091697 0.106125146
0.2406179 0.18043408 -0.2287784 0.059131235 0.120661944 -0.16703145 -0.18119955 -0.1297328
0.07159105 0.0043817163 -0.058744594 0.1449844 0.13678738 0.24116185 0.102829635 0.18507913
-0.06748928 0.20161009 0.053103715 -0.15474604 0.012175679 -0.18785886 -0.026536852 -0.12940948
0.10248962 0.060066402 -0.12215495 -0.10910866 -0.2066195 -0.20752802 -0.16234052 -0.25908265
-0.20676224 -0.050591484 -0.13334203 0.25140986 0.20342422 0.23298195 -0.10686132 -0.20547402
-0.07254094 0.1599403 0.2258592 0.26255193 0.031573474 -0.23542269 0.074495435 -0.12973739
-0.066955745 0.24526927 0.05764714 0.25414428 -0.16002715 -0.2138871 -0.12356916 -0.09622823
0.17852771 0.031611323 -0.033780992 0.2257494 0.1730428 -0.15077755 0.19245073 0.13522172
-0.0656261 -0.054895073 0.049310654 -0.23838733 0.1760383 -0.22972077 0.18735114 -0.091997474
0.08091444 -0.25274134 -0.23906289 0.12047893 0.17813832 -0.11852616 -0.21933223 0.027830422
-0.22072439 0.16945416 0.15001845 0.022374272 0.19875276 0.22312388 0.027191013 0.12383297
-0.0379328 0.21143776 0.060284525 0.04562229 -0.011529505 -0.2046693 0.12112436 0.19069225
-0.06812596 0.08384225 -0.014807522 0.26424125 -0.033573136 0.042715877 0.022852123 -0.21183169
-0.026072845 0.23219088 -0.23622869 -0.08661096 0.0057949424 0.01715082 0.07333356 0.2347826
-0.18261662 -0.08702189 0.16780719 -0.07253775 -0.22261171 0.025056392 0.058828205 -0.054189757
0.22466746 0.20002583 0.07741603 -0.16443002 0.07219699 -0.25660425 -0.19468239 -0.2605814
-0.17021166 -0.15053943 -0.07392965 -0.08059725 -0.07551393 -0.12165724 -0.25722373 0.13533202
-0.16763368 -0.18525073 -0.042996883 0.1919786 0.19800839 -0.02922067 0.25995222 0.058472186
0.050212026 0.09258619 0.08067536 0.046978235 0.08554977 -0.2348494 -0.068551555 0.14340195
-0.16108829 0.24694476 -0.19565673 -0.21769106 0.113873005 0.22179335 0.070878476 -0.022331387
0.07903892 0.006000519 0.13699931 0.12233502 -0.15309435 -0.24634774 -0.034219638 -0.091203526
-0.10177952 0.06284365 -0.019410849 0.03296244 -0.15141666 -0.01803729 -0.13693781 -0.1507989
-0.06511794 0.058933318 -0.24450624 -0.08333327 0.08892152 -0.17063037 0.1610614 -0.20561178
0.14043236 -0.08367105 -0.20493042 0.24848089 0.20424703 -0.1764473 0.029176831 0.07469931
-0.07993998 -0.09173851 -0.055626765 0.16186133 0.25693384 -0.112393945 0.25849584 -0.15716854
00000000: 3cb9 aa3d 405d 73be 60b9 693e 847c 83bd
00000010: 700c 49bd a038 273d 5046 3b3d 8014 863c
00000020: 6aff 1c3e 0b76 6fbe 5824 f63d e46b 84be
00000030: 12a5 4e3e 7a4c b2bd 573b 72be 5d00 85be
00000040: 2ed9 783e d0a0 593d e0e8 f2bc a0b3 163e
00000050: 24ca 613e 8f24 81be c641 adbd b4d0 803d
00000060: 06f4 a9bd 020a 713e f047 ccbc c478 283e
00000070: 6a4b 11be 42a5 673e 9088 fe3c 71bb 80be
00000080: 9ea7 50be 90de 823c 98b9 f6bc 3879 42bd
00000090: 1ee7 753e 2205 703e 30be e9bd fe3f 063e
000000a0: b008 a6bc 1c23 babd fe93 80be b8dd 33be
000000b0: 9ff3 7abe 808c 08bb 5e2e 623e e6aa 773e
000000c0: e8ef ecbd e81a 59bd 7a8b 1d3e ada5 0fbe
000000d0: 8ceb 5b3e 32e5 64be 508e 50bd 2458 d93d
000000e0: 8a64 763e b6c3 383e e344 6abe 9833 723d
000000f0: 9c1d f73d 4b0a 2bbe 608c 39be add8 04be
00000100: 549e 923d 8094 8f3b 2c9e 70bd ca76 143e
00000110: fe11 0c3e 22f3 763e 5898 d23d 6285 3d3e
00000120: d237 8abd e072 4e3e 4883 593d bf75 1ebe
00000130: 807c 473c 135e 40be d063 d9bc eb83 04be
00000140: 14e6 d13d 3008 763d 602c fabd 5c74 dfbd
00000150: 1094 53be 3a82 54be 983c 26be 7ba6 84be
00000160: 7bb9 53be 0439 4fbd d08a 08be cbb8 803e
00000170: 704e 503e d292 6e3e 1cda dabd c867 52be
00000180: 5890 94bd 64c7 233e a247 673e 356d 863e
00000190: 3053 013d a512 71be 1091 983d e1d9 04be
000001a0: 1820 89bd de27 7b3e 681f 6c3d 331f 823e
000001b0: 28de 23be 3805 5bbe d411 fdbd 4e13 c5bd
000001c0: f8cf 363e e07a 013d f05d 0abd da2a 673e
000001d0: 2232 313e 6e65 1abe ce11 453e 9077 0a3e
000001e0: fa66 86bd a8d9 60bd f8f9 493d cf1b 74be
000001f0: 6243 343e ec3b 6bbe fad8 3f3e 2c69 bcbd
00000200: 78b6 a53d 5067 81be e7cc 74be a8bd f63d
00000210: e469 363e d8bd f2bd a198 60be a0fc e33c
00000220: 9305 62be 6485 2d3e 709e 193e 404a b73c
00000230: d885 4b3e 967a 643e b0bf de3c 249c fd3d
00000240: 6c5f 1bbd 2483 583e e8ec 763d 70de 3a3d
00000250: 40e6 3cbc d494 51be 0c10 f83d d444 433e
00000260: a085 8bbd 7cb5 ab3d 409b 72bc a14a 873e
00000270: fc83 09bd d8f6 2e3d 6034 bb3c 68ea 58be
00000280: b896 d5bc 72c3 6d3e efe5 71be 1661 b1bd
00000290: 80e3 bd3b e07f 8c3c e82f 963d da6a 703e
000002a0: daff 3abe 8838 b2bd a6d5 2b3e ac8e 94bd
000002b0: 53f4 63be 1043 cd3c d8f5 703d 14f6 5dbd
000002c0: 3a0f 663e 92d3 4c3e 4c8c 9e3d 5860 28be
000002d0: 04dc 933d a261 83be d25a 47be ed6a 85be
000002e0: f74b 2ebe 0227 1abe 6e68 97bd 2c10 a5bd
000002f0: 0ca7 9abd 6e27 f9bd d4b2 83be 7a94 0a3e
00000300: 2aa8 2bbe 5eb2 3dbe 801d 30bd 0a96 443e
00000310: b6c2 4a3e 3060 efbc 7518 853e 8880 6f3d
00000320: 20ab 4d3d d49d bd3d 2039 a53d 406c 403d
00000330: b834 af3d 5c7c 70be c264 8cbd f6d7 123e
00000340: 54f4 24be 16df 7c3e 3d5a 48be 68ea 5ebe
00000350: 4036 e93d cc1d 633e bc28 913d 50f0 b6bc
00000360: 28df a13d 00a0 c43b 8c49 0c3e c88a fa3d
00000370: c4c4 1cbe 9542 7cbe e429 0cbd eac8 babd
00000380: c871 d0bd 2cb4 803d 8003 9fbc a003 073d
00000390: f80c 1bbe f0c2 93bc 6d39 0cbe 076b 1abe
000003a0: 8e5c 85bd 1064 713d d85f 7abe a2aa aabd
000003b0: 7c1c b63d bab9 2ebe 48ed 243e e58b 52be
000003c0: 80cd 0f3e ba5b abbd 48d9 51be c671 7e3e
000003d0: 2226 513e 9aae 34be 4004 ef3c f4fb 983d
000003e0: 92b7 a3bd 66e1 bbbd e4d8 63bd fabe 253e
000003f0: d58c 833e cc2e e6bd 9159 843e caf0 20be

model/dense_1/MatMul_bias f4 [4]
0.0 0.0 0.0 0.0
00000000: 0000 0000 0000 0000 0000 0000 0000 0000

model/dense_2/MatMul/ReadVariableOp/transpose f4 [4, 8]
0.47580248 -0.3119253 -0.23540297 0.6836515 -0.12861955 0.39458686 0.00060504675 -0.48746386
-0.33445582 0.51389974 0.13685435 -0.6759431 0.5217033 0.48025388 0.17070538 -0.4075536
-0.6797321 0.7064181 -0.2133111 -0.60331863 0.44277912 -0.35820624 -0.53594285 0.52207154
0.699832 -0.3549095 -0.38667575 0.023975134 -0.1583907 0.19094223 0.51549166 0.5038968
00000000: 629c f33e acb4 9fbe 7a0d 71be c903 2f3f
00000010: d8b4 03be 4a07 ca3e 009c 1e3a dd94 f9be
00000020: cb3d abbe ef8e 033f 8c23 0c3e 9b0a 2dbf
00000030: 598e 053f d6e3 f53e 64cd 2e3e deaa d0be
00000040: ec02 2ebf d1d7 343f 3a6e 5abe 1773 1abf
00000050: f2b3 e23e cf66 b7be 8d33 09bf 7ba6 053f
00000060: 3128 333f b3b6 b5be 5dfa c5be 8067 c43c
00000070: 2c31 22be 5c86 433e 43f7 033f 61ff 003f

model/dense_2/MatMul_bias f4 [4]
0.0 0.0 0.0 0.0
00000000: 0000 0000 0000 0000 0000 0000 0000 0000

model/lambda/truediv f4 [256, 256]
-0.0 -0.0 -0.0 -0.0 -0.0 -0.0 -0.0 -0.0
-0.0 -0.0 -0.0 -0.0 -0.0 -0.0 -0.0 -0.0
-0.0 -0.0 -0.0 -0.0 -0.0 -0.0 -0.0 -0.0
-0.0 -0.0 -0.0 -0.0 -0.0 -0.0 -0.0 -0.0
-0.0 -0.0 -0.0 -0.0 -0.0 -0.0 -0.0 -0.0
-0.0 -0.0 -0.0 -0.0 -0.0 -0.0 -0.0 -0.0
-0.0 -0.0 -0.0 -0.0 -0.0 -0.0 -0.0 -0.0
-0.0 -0.0 -0.0 -0.0 -0.0 -0.0 -0.0 -0.0
-0.0 -0.0 -0.0 -0.0 -0.0 -0.0 -0.0 -0.0
-0.0 -0.0 -0.0 -0.0 -0.0 -0.0 -0.0 -0.0
-0.0 -0.0 -0.0 -0.0 -0.0 -0.0 -0.0 -0.0
-0.0 -0.0 -0.0 -0.0 -0.0 -0.0 -0.0 -0.0
-0.0 -0.0 -0.0 -0.0 -0.0 -0.0 -0.0 -0.0
-0.0 -0.0 -0.0 -0.0 -0.0 -0.0 -0.0 -0.0
-0.0 -0.0 -0.0 -0.0 -0.0 -0.0 -0.0 -0.0
-0.0 -0.0 -0.0 -0.0 -0.0 -0.0 -0.0 -0.0
-0.0 -0.0 -0.0 -0.0 -0.0 -0.0 -0.0 -0.0
-0.0 -0.0 -0.0 -0.0 -0.0 -0.0 -0.0 -0.0
-0.0 -0.0 -0.0 -0.0 -0.0 -0.0 -0.0 -0.0
-0.0 -0.0 -0.0 -0.0 -0.0 -0.0 -0.0 -0.0
-0.0 -0.0 -0.0 -0.0 -0.0 -0.0 -0.0 -0.0
-0.0 -0.0 -0.0 -0.0 -0.0 -0.0 -0.0 -0.0
-0.0 -0.0 -0.0 -0.0 -0.0 -0.0 -0.0 -0.0
-0.0 -0.0 -0.0 -0.0 -0.0 -0.0 -0.0 -0.0
-0.0 -0.0 -0.0 -0.0 -0.0 -0.0 -0.0 -0.0
-0.0 -0.0 -0.0 -0.0 -0.0 -0.0 -0.0 -0.0
-0.0 -0.0 -0.0 -0.0 -0.0 -0.0 -0.0 -0.0
-0.0 -0.0 -0.0 -0.0 -0.0 -0.0 -0.0 -0.0
-0.0 -0.0 -0.0 -0.0 -0.0 -0.0 -0.0 -0.0
-0.0 -0.0 -0.0 -0.0 -0.0 -0.0 -0.0 -0.0
-0.0 -0.0 -0.0 -0.0 -0.0 -0.0 -0.0 -0.0
-0.0 -0.0 -0.0 -0.0 -0.0 -0.0 -0.0 -0.0
00000000: 0000 0080 0000 0080 0000 0080 0000 0080
00000010: 0000 0080 0000 0080 0000 0080 0000 0080
00000020: 0000 0080 0000 0080 0000 0080 0000 0080
00000030: 0000 0080 0000 0080 0000 0080 0000 0080
00000040: 0000 0080 0000 0080 0000 0080 0000 0080
00000050: 0000 0080 0000 0080 0000 0080 0000 0080
00000060: 0000 0080 0000 0080 0000 0080 0000 0080
00000070: 0000 0080 0000 0080 0000 0080 0000 0080
00000080: 0000 0080 0000 0080 0000 0080 0000 0080
00000090: 0000 0080 0000 0080 0000 0080 0000 0080
000000a0: 0000 0080 0000 0080 0000 0080 0000 0080
000000b0: 0000 0080 0000 0080 0000 0080 0000 0080
000000c0: 0000 0080 0000 0080 0000 0080 0000 0080
000000d0: 0000 0080 0000 0080 0000 0080 0000 0080
000000e0: 0000 0080 0000 0080 0000 0080 0000 0080
000000f0: 0000 0080 0000 0080 0000 0080 0000 0080
00000100: 0000 0080 0000 0080 0000 0080 0000 0080
00000110: 0000 0080 0000 0080 0000 0080 0000 0080
00000120: 0000 0080 0000 0080 0000 0080 0000 0080
00000130: 0000 0080 0000 0080 0000 0080 0000 0080
00000140: 0000 0080 0000 0080 0000 0080 0000 0080
00000150: 0000 0080 0000 0080 0000 0080 0000 0080
00000160: 0000 0080 0000 0080 0000 0080 0000 0080
00000170: 0000 0080 0000 0080 0000 0080 0000 0080
00000180: 0000 0080 0000 0080 0000 0080 0000 0080
00000190: 0000 0080 0000 0080 0000 0080 0000 0080
000001a0: 0000 0080 0000 0080 0000 0080 0000 0080
000001b0: 0000 0080 0000 0080 0000 0080 0000 0080
000001c0: 0000 0080 0000 0080 0000 0080 0000 0080
000001d0: 0000 0080 0000 0080 0000 0080 0000 0080
000001e0: 0000 0080 0000 0080 0000 0080 0000 0080
000001f0: 0000 0080 0000 0080 0000 0080 0000 0080
00000200: 0000 0080 0000 0080 0000 0080 0000 0080
00000210: 0000 0080 0000 0080 0000 0080 0000 0080
00000220: 0000 0080 0000 0080 0000 0080 0000 0080
00000230: 0000 0080 0000 0080 0000 0080 0000 0080
00000240: 0000 0080 0000 0080 0000 0080 0000 0080
00000250: 0000 0080 0000 0080 0000 0080 0000 0080
00000260: 0000 0080 0000 0080 0000 0080 0000 0080
00000270: 0000 0080 0000 0080 0000 0080 0000 0080
00000280: 0000 0080 0000 0080 0000 0080 0000 0080
00000290: 0000 0080 0000 0080 0000 0080 0000 0080
000002a0: 0000 0080 0000 0080 0000 0080 0000 0080
000002b0: 0000 0080 0000 0080 0000 0080 0000 0080
000002c0: 0000 0080 0000 0080 0000 0080 0000 0080
000002d0: 0000 0080 0000 0080 0000 0080 0000 0080
000002e0: 0000 0080 0000 0080 0000 0080 0000 0080
000002f0: 0000 0080 0000 0080 0000 0080 0000 0080
00000300: 0000 0080 0000 0080 0000 0080 0000 0080
00000310: 0000 0080 0000 0080 0000 0080 0000 0080
00000320: 0000 0080 0000 0080 0000 0080 0000 0080
00000330: 0000 0080 0000 0080 0000 0080 0000 0080
00000340: 0000 0080 0000 0080 0000 0080 0000 0080
00000350: 0000 0080 0000 0080 0000 0080 0000 0080
00000360: 0000 0080 0000 0080 0000 0080 0000 0080
00000370: 0000 0080 0000 0080 0000 0080 0000 0080
00000380: 0000 0080 0000 0080 0000 0080 0000 0080
00000390: 0000 0080 0000 0080 0000 0080 0000 0080
000003a0: 0000 0080 0000 0080 0000 0080 0000 0080
000003b0: 0000 0080 0000 0080 0000 0080 0000 0080
000003c0: 0000 0080 0000 0080 0000 0080 0000 0080
000003d0: 0000 0080 0000 0080 0000 0080 0000 0080
000003e0: 0000 0080 0000 0080 0000 0080 0000 0080
000003f0: 0000 0080 0000 0080 0000 0080 0000 0080
